stock_model.pth (torch, 222711 bytes, 9 tensors)

lstm.weight_ih_l0 f4 [256, 18]
00000000: 8cbf ab3d 93c4 113d 616b 183d c6b6 003e
00000010: 9229 c8bd 2ee2 fd3c 44c4 86bc acc8 86bb
00000020: cb57 0e3e 90a5 e53c 24d1 27bd 5464 d23d
00000030: 0839 ab3d cc3e babc d1df 873d 43a8 163e
00000040: 5078 173e 724e d83d edbd e3bd 00e6 2cbd
00000050: 50d7 333d ba6b acbd cbd2 a0bd ce33 873d
00000060: 01d7 023e 57c6 c9bd a04d 90bd 2fde 883d
00000070: cbc1 883d 004d eabd 6f5e 93bc 0995 90bd
00000080: 6b73 8abd 3c2f c53d b232 afbc bfd9 3439
00000090: f94a 8f3d ac68 e8bd 3eae b23c 0fb9 13bc
000000a0: d30a 5bbd 6bd7 8b3d e3cf 9f3d 0795 88bd
000000b0: f18e 1cbd de1d 843d 15f7 2ebd a648 a0bc
000000c0: 8344 0ebd 8d00 9f3d 8fc5 89bd 02e0 18be
000000d0: 4b0c 65bd 5b8a bebd 88b8 eebd 8413 cbbd
000000e0: 3882 24bd 7156 fbbd 31b2 783d 550e 35bd
000000f0: 4de9 2cbc 8d5e 47bd 9a2e 8a3d 0a34 d63d
00000100: f871 e23d 0de8 b6bc 8328 2d3d 069a 553d
00000110: c1a8 8d3d 7faf af3d 68a1 c03d 4aa1 13be
00000120: 0b71 f43d ef6c 253d eb1c 91bc 5085 afbd
00000130: bf44 063d 9478 54bd aef9 d1bc af70 88bd
00000140: 582b 883d dec3 eabc e21a f8bb 7c6f 94bd
00000150: c269 9abd 9710 993d 3428 8c3d 2454 72bd
00000160: 226f 80bc c96d 973d 9838 cb3d 6b2f bd3d
00000170: a5a8 61bd db38 a33d 934a b23d 946e 80bd
00000180: e45d 363d b710 723d 9253 6a3d 464a 123d
00000190: 4388 acbd dd08 533d 4d9b a0bd 679f 953d
000001a0: 145c 6fbb f111 d7bd 0c97 bf3d cb1e d7bc
000001b0: 80f8 d43d cafa d53c 6cb7 0abe 4ead f9bd
000001c0: 4777 15bd aa15 803d 881e b4bd 5370 90bd
000001d0: 64a2 5b3b 00a0 61bc af27 8dbc fec0 49bd
000001e0: 8be9 973d 045d 593a a7ae 57bd 8e13 f73c
000001f0: 2b2d a9bb 4d94 423c 8434 9c3d 449d a93c
00000200: 76d8 20bd 38a1 d13d 9375 23bd 7e66 a73d
00000210: 949f a63d 00fc 4f3d a5d8 203d 6ce3 5fbd
00000220: 07f8 ed3d cf1a 34bd 5ef5 c83d eda8 e3bc
00000230: f2c4 1f3d 8f00 a9bd 5381 ebbd cde5 943d
00000240: 6623 76bc 9c0b ef37 59f6 c1bd d435 01be
00000250: c920 bc3d aaf8 9d3d 93ec 6fbc 98db 793b
00000260: 0c70 7cbd 4e24 733d f9fc 813d cabf a33d
00000270: ce2b cbbd 2dfa 51bd c85e a3bd 4db3 c6bd
00000280: 7ae5 abbd 660f e5bd b830 d0bd f67c f43c
00000290: 3150 debd 39bd eabd 2e32 1e3e 4904 19be
000002a0: 303f ef3d 482a 453d 5604 0abd 25a1 ce3d
000002b0: d1df d8bd 2a00 243c 55e1 53ba fd70 873d
000002c0: 79eb 09bc babc cfbc 079a 0fbe b7d7 92bb
000002d0: 4731 debd 76f5 de3b 0f6f 1ebd f7a8 683d
000002e0: cb47 b1bd a3f7 bbbd 9456 b4bc 77bf 863d
000002f0: 49c5 09be 6563 f83d 9356 963d e12c c7bd
00000300: d26e e73d a782 ba3d 14d1 d5bd 436c a43d
00000310: 3e00 fbbd b4a8 febd b7c7 1b3e 91e5 193e
00000320: 6ccb 523d bbd6 c7ba ac58 333c 7358 a53d
00000330: 4961 743b 0f14 84bd c2e7 853d e4c1 febc
00000340: 5445 3bbd f322 003e 7e45 d03d 5602 193d
00000350: d005 a3bd 9ea5 91bd 5811 8dbd 6ccc b3bc
00000360: a6ce db3c 4a30 943d 333e cb3c 1ff8 d53c
00000370: 0568 18bd fcdd 24bd c07b 3c3c 5226 0cbc
00000380: ce60 29bc af39 0abc 1c65 ba3d 2c36 873c
00000390: 63ee 283d 8182 be3c b1ff 303d 62e4 19be
000003a0: 6cc8 6abd 60e3 cc3d f464 f83d 0ee9 913d
000003b0: 2e39 f03d c494 5bbd 65d2 edbd 0e3a 013e
000003c0: 1ceb 21be 4fb7 90bb 3cd4 903d 010e 0f3d
000003d0: 2c6c bfbd bba4 cdbd b3c4 853d 5334 8e3d
000003e0: 3d0e cfbb 04f4 c93d cc85 693d 53fe 713d
000003f0: b9b7 1c3c 9c93 87bd 3d6b cebd ba6a 453d
0.08386144 0.03558786 0.03721178 0.12569723 -0.09773554 0.03099164 -0.016451009 -0.0041132774
0.13900678 0.028033048 -0.040970936 0.10273042 0.08360487 -0.022735022 0.066344865 0.14712624
0.1479199 0.10561837 -0.1112021 -0.042211533 0.04390651 -0.08418985 -0.078527056 0.06601678
0.1277733 -0.098522834 -0.07046056 0.06683003 0.06677588 -0.11440468 -0.017989365 -0.07059676
-0.067602955 0.0962815 -0.021386478 0.00017247254 0.06996722 -0.113480896 0.0218116 -0.009016289
-0.05347712 0.06828197 0.07803323 -0.0666905 -0.038222257 0.06451009 -0.042716105 -0.019565891
-0.034733307 0.07763777 -0.067271344 -0.14929202 -0.055919927 -0.09303733 -0.1165629 -0.09915832
-0.04016325 -0.12272347 0.06071681 -0.04420312 -0.01055367 -0.048674155 0.0674717 0.104591444
0.11056894 -0.022327447 0.042274963 0.05214884 0.06916953 0.08578395 0.09405786 -0.14416996
0.11935624 0.04038709 -0.017713984 -0.08570349 0.032780405 -0.051872805 -0.025631752 -0.06662118
0.06648892 -0.02865785 -0.007571564 -0.072478265 -0.07539703 0.074738674 0.06843606 -0.059162274
-0.015677992 0.07393987 0.09922904 0.0923756 -0.055092473 0.07969829 0.0870563 -0.06271091
0.044523135 0.05909797 0.057208605 0.035715364 -0.08424427 0.051522125 -0.07842121 0.07305794
-0.0036523389 -0.10501469 0.09354982 -0.0262598 0.1039896 0.026120562 -0.13546532 -0.12191258
-0.036490705 0.06254132 -0.08794886 -0.07052674 0.003351354 -0.013771057 -0.017230837 -0.049256317
0.07417592 0.00082917535 -0.052656796 0.030160692 -0.005162855 0.011876178 0.07627204 0.020704873
-0.039268933 0.10235828 -0.03990705 0.08173846 0.08135906 0.050777435 0.03926911 -0.054660246
0.11619573 -0.04397088 0.09812425 -0.027790511 0.03900618 -0.0825206 -0.11499276 0.072703935
-0.015023088 2.8496426e-05 -0.09470815 -0.1261819 0.09185941 0.077134445 -0.014643806 0.0038125273
-0.061630294 0.059360795 0.06347079 0.07995565 -0.099204645 -0.051263977 -0.079770625 -0.09702168
-0.083933786 -0.11184578 -0.10165542 0.029844742 -0.10855139 -0.114618726 0.1544883 -0.14943041
0.11681974 0.048136026 -0.03369554 0.1008933 -0.105895646 0.010009805 -0.00080825883 0.06613348
-0.008417957 -0.025358547 -0.140236 -0.0044812816 -0.10849243 0.0068041636 -0.038680132 0.056801762
-0.086562715 -0.09178092 -0.02201394 0.06579488 -0.13454165 0.12128333 0.073407315 -0.09725357
0.11300434 0.09106951 -0.10440269 0.08028462 -0.122559056 -0.12434521 0.15212904 0.15028979
0.05146353 -0.001524649 0.010946434 0.08073511 0.0037289432 -0.064491384 0.06538345 -0.031098314
-0.045720413 0.12513332 0.101695046 0.037355743 -0.07960093 -0.07111667 -0.06888074 -0.021948062
0.026831936 0.07235773 0.024809932 0.02611929 -0.037208576 -0.040250763 0.011504114 -0.008554058
-0.010338021 -0.008436604 0.09101316 0.016505323 0.04124297 0.023255588 0.043212596 -0.15028527
-0.057320043 0.10004306 0.1212863 0.0712453 0.11729656 -0.05360867 -0.11612395 0.12619802
-0.15812343 -0.0044163833 0.070717305 0.034925465 -0.09346804 -0.100411855 0.06531658 0.06943574
-0.006318836 0.098609954 0.057012364 0.059080433 0.009565287 -0.06619951 -0.10079048 0.048197486

lstm.weight_hh_l0 f4 [256, 64]
00000000: 117d 053e 53d9 48bd e7c1 e9ba aecf bd3d
00000010: 9263 cc3d 06c1 f4bd d655 823d c50b 8d3d
00000020: cf34 603d e129 c7bc 555d b43d 96a6 57bd
00000030: 5c0b 973d 5b43 953d 62b8 a13b f1c2 dbbc
00000040: ca38 053d b42d d3bc 013d ba3d 3fe1 143e
00000050: 8634 0c3c 29fe 883d 8994 dc3b 1150 33bc
00000060: 3880 293d 583a cebc 25ca 07be 2fc1 4ebd
00000070: a324 9abb 065d 2d3d 568b 85bc 5f0d 0e3e
00000080: 9e57 9d3d e8e7 663c 646f 3b3d 0922 ebbd
00000090: 85f8 17bd db85 c0bd f0f1 343d 8512 e1bd
000000a0: f928 72bd 8d43 cb3d b9ee debc 4e1a 143d
000000b0: 1c96 f83d 5606 e1bc 3c12 d43d 0e6f 66bd
000000c0: e35c de3d b026 e43d 69a1 9cbd b0e5 eb3c
000000d0: 0f81 e6bd c5a0 b6bc d89e f43d c5e6 dd3d
000000e0: 076a 04be 96e9 aa3d 94dd a13d 62d7 a1bc
000000f0: 6414 bf3d 2b3a 79bc fcbc 1d3d c673 613d
00000100: 973b 27bd d36d 81bc f59c a7bd 9bbf 8e3d
00000110: ef1c 9a3c 68bc 8dbd db81 d4bd 9d34 37bd
00000120: e989 aabd 6f05 d0bd 477b d9bd 5629 8abd
00000130: 3b1a 583d 6fe0 d73d e481 0b3e de97 53bd
00000140: e0df f53d ef1d a0bd 7205 b4bd 10e7 ff3d
00000150: b576 233d d947 8d3d 25e7 93bd 458c d83c
00000160: c6ad adbd 33e4 3f3d e25d fb3d 0236 bd3d
00000170: 55ca 123c 882b a6bd ff72 ebbd 5ce5 0abe
00000180: 45ba dd3d 7831 c0bd e80b ecbd 106d 52bb
00000190: ba00 e9bc c2ec 233d 8dba 4e3d bd0c 04bd
000001a0: 697e 443d f9fc fe3d 27c3 1dbc cdbd fbbd
000001b0: aad1 ad3d 696d efbc 4427 983d a49d b63d
000001c0: 4727 403d 3c4f ccbd ac12 b03d fcc9 813a
000001d0: d42d 823d 96cf debc 92a6 a7bc e99a 473d
000001e0: 87dc 89bd 45fd 2d3d 99d9 063d c44f 163d
000001f0: 4477 80bd 82ee 21bd c51c e93d 8060 c53c
00000200: 5a4e 7f3d 4c4d a53d 7ec9 64bd 398a fa3c
00000210: 7a8d bcbc c0b8 53bd 96c3 a1bd 0689 1d3c
00000220: b597 9f3d 5df0 d33d 5bf5 b23c 2e88 be3d
00000230: f908 f73d 49a9 c3bd 66ab 6abd 98fb 5b3d
00000240: 2b18 cc3c 148f c2bc c931 c0bd 218a 34bd
00000250: b7ef 8fbd 2ed0 19bd cb47 113e c6e7 8f3d
00000260: 2efb c33d f702 df3c f90a ef3c e75d 62bd
00000270: 3959 c23d a337 b13d 9df5 1dbb 1c31 ad3d
00000280: 91eb 483d 8b43 7a3d c7b4 48bd 7bcd a3bd
00000290: b4ef 053e c6e7 e53d c9ce a83d 2437 d23d
000002a0: 89cb 903d 8218 ff3d b7fa 16bd 7cf6 a03d
000002b0: e55f d43d 75b5 bfbd 8154 933d 212e d3bd
000002c0: 1e2e ab3d 54d2 07be 7d03 a8bd 3cbd fcbb
000002d0: 443f 2cbd fc29 b43d 23ac 47bd 72a4 943d
000002e0: 27d8 95bc 4a75 233d 6ec5 d33d 8dfb 0f3d
000002f0: e3bf d0bc 703b 09bd 9fc4 833d ba53 fcbd
00000300: 8b40 dcbc 4592 c63d aad9 e0bd 674a 0ebd
00000310: 29f9 23be e1e5 d6bc 4b3e d93d 258e bc3d
00000320: 2925 893d 2812 4a3d 69d9 f03d 145f 10bd
00000330: 7700 ba3d 7012 7fbd 80ae ce3b 558d ae3d
00000340: 92bf 50bc 41b5 0d3d 7fe2 96bd 1a5f 0e3d
00000350: 1bea c43d bba6 8a3d 518d 993d 5612 c6bc
00000360: 155c 013d 4d5c b6bb ecf3 ed3d a9b8 06bd
00000370: 6165 c23d 74e2 723d 32d8 ddbd 164e ddbc
00000380: 2481 09be a3c4 523d bc35 133c 5f2d 913d
00000390: 34c4 e5bd 8d31 a83c a81f 75bd 7e1a c03d
000003a0: 5d99 113b bc7a d73d 4a6f 483d a556 9cbd
000003b0: bb86 993c 5a4d 82bd a660 d5bb bf8e e23b
000003c0: 4116 14bc 5008 9f3b 7a31 c03c 1ffa 47bd
000003d0: bdfe 773d f74e 403d 42ce 433b 1f1f 223e
000003e0: 4f20 653d 33b0 a7bd 9839 e8bd cbed d43c
000003f0: 0be7 f5bd 55ce 303d 3293 70bd d851 583d
0.1303599 -0.04903538 -0.0017834277 0.092681274 0.09979929 -0.11950879 0.06364028 0.068870105
0.054737862 -0.024311962 0.08806864 -0.052649103 0.073752135 0.07288238 0.00493531 -0.026826354
0.03252486 -0.025778629 0.09093667 0.1453905 0.008557444 0.06689102 0.006731574 -0.010944382
0.041382045 -0.025174305 -0.13260706 -0.050477203 -0.0047040745 0.042325042 -0.016301792 0.13872288
0.07682727 0.014093377 0.045760527 -0.11481101 -0.03710224 -0.09400531 0.044176042 -0.109898604
-0.059121106 0.09924994 -0.027213441 0.0361579 0.12138006 -0.027468842 0.103550404 -0.056258254
0.108575605 0.111401916 -0.07647974 0.028796047 -0.11255085 -0.022293458 0.119443595 0.108350314
-0.12931071 0.08345334 0.07903591 -0.019756023 0.09330061 -0.015211622 0.038510308 0.05504205
-0.040828314 -0.015799439 -0.08184234 0.069701396 0.018812625 -0.06920701 -0.103763305 -0.04472791
-0.083270855 -0.101572864 -0.106192164 -0.067461655 0.05275939 0.10540854 0.13623768 -0.051658504
0.120055914 -0.078182094 -0.08790101 0.124952435 0.03990813 0.068984695 -0.07221822 0.026434073
-0.0848041 0.046848487 0.12273766 0.09238817 0.0089593725 -0.08113772 -0.11496543 -0.13564056
0.10826544 -0.093844354 -0.115257084 -0.0032108463 -0.02844273 0.04002071 0.050470877 -0.03223871
0.047972117 0.124505945 -0.0096290475 -0.12292061 0.08487256 -0.029226976 0.07429364 0.08916786
0.046912458 -0.0997605 0.085973114 0.0009902115 0.06356397 -0.027198594 -0.02046517 0.04873172
-0.067315154 0.042477865 0.03292236 0.036697164 -0.06272748 -0.0395341 0.113824405 0.024093866
0.06233058 0.08071384 -0.05585622 0.030583488 -0.02301668 -0.051689863 -0.07898633 0.009615188
0.07792608 0.1034858 0.02184551 0.09303318 0.12062258 -0.09553773 -0.057292365 0.053706735
0.024913868 -0.023749866 -0.09384496 -0.044077042 -0.07028144 -0.03755205 0.14187543 0.07026629
0.09569393 0.027223093 0.029180037 -0.055265334 0.09489674 0.0865319 -0.0024102696 0.084566325
0.04905278 0.06109957 -0.049000528 -0.07998177 0.1307972 0.11225848 0.08242566 0.102644235
0.07070071 0.12455846 -0.036860194 0.07859513 0.10369853 -0.09360782 0.07193852 -0.10311533
0.083584055 -0.13263828 -0.0820379 -0.007712988 -0.042052522 0.087970704 -0.048748147 0.07257928
-0.018291546 0.039906777 0.10340391 0.035152007 -0.025482124 -0.03350395 0.06433987 -0.12320657
-0.026886245 0.096958674 -0.10979016 -0.034738924 -0.16013016 -0.026232662 0.106075846 0.092067994
0.06696541 0.04933372 0.11760218 -0.035246924 0.0908212 -0.062273443 0.006307423 0.08523051
-0.012740986 0.034596685 -0.073674195 0.034758665 0.096149646 0.067700826 0.07497657 -0.024178665
0.031581957 -0.0055652023 0.1161879 -0.03289095 0.09491993 0.059297994 -0.108322516 -0.027014773
-0.1342817 0.05145706 0.008984979 0.07088732 -0.112190634 0.02053144 -0.059844643 0.09380053
0.0022216656 0.105214566 0.04893426 -0.07633714 0.018741002 -0.0636241 -0.0065117655 0.0069139893
-0.009038509 0.004853286 0.023461092 -0.04882252 0.06054567 0.046950307 0.0029877578 0.15832184
0.055939015 -0.08187904 -0.1133911 0.025992295 -0.120069586 0.043165524 -0.058734126 0.052812427

lstm.bias_ih_l0 f4 [256]
00000000: fd50 993d a9c0 b93d 8f15 573d 5821 89bd
00000010: 1225 91bc 536e af3d 4252 2ebd 4ad3 ccbd
00000020: 5d82 18bd ee18 b63d cb8e b8bd 6e52 333c
00000030: ea6e 0f3d d602 c2bd 29a0 1c3d cef3 dd3d
00000040: c10f d2bc f37c 05be c0ba c1bd 2530 10bd
00000050: 392a efbd b759 8bbd c398 2b3d 5107 8d3d
00000060: 1b50 c3b7 8e09 723c 8ad4 8fbb a286 d43d
00000070: 5d50 7cbd b4e3 53bc 2bcb 353b 760d 31bd
00000080: 4d57 83bd a323 88bc da12 c9bd bfab a03a
00000090: b1e2 c33d 10d1 e33d 360d a13d 5ca1 2a3d
000000a0: 9ab5 babd c999 953d f6ca aabd 27f1 f53c
000000b0: 36f1 bb3c af21 6b3d 497c e13d 07ac 0b3e
000000c0: afee b73d 9f98 bb3d 0873 9fbd f036 0ebd
000000d0: e9f3 083e e33a c4bd 6f56 f4bd f231 393d
000000e0: 83ee fabd 667b 623d 62b0 c43d 3340 77bd
000000f0: 0ca5 b13d a892 873d 6898 b03d 4b99 c03d
00000100: 2136 b83a d8dd 5fbd 5b64 eebd 1042 43bd
00000110: 3663 b63c 010b dfbc 9e6c aebd 0990 5abd
00000120: ccb0 673d 5ec7 07be 4907 91bd 8e88 d1bd
00000130: fbc5 de3c 0241 043d 3cbf cabc c53d c43d
00000140: 9aff bb3d e8f8 8fbb b5fd 12ba 46d4 71bd
00000150: 3c99 a7bd 312d eabd 2e14 083c f358 fabc
00000160: 92f0 d23c f4fd 383c 64b9 4b3d 7340 bfbc
00000170: 4fdd c43d d4ad f13c e9a0 45b9 0d59 923d
00000180: 79d5 a33d f443 2d3d e146 093e 590b ce3d
00000190: 6d2f 80bd 45c5 c2bd b9d5 c63d b604 603c
000001a0: 39e6 e7bd 18bc 383d 805a d73d e596 ed3d
000001b0: 66fa 9dbd 6447 b3bb e546 b4bc 4bbe 9a3d
000001c0: 837a 70bd d541 693d 5125 63bd f2e2 cabc
000001d0: b3ce 993d 8d10 54bd 9d09 5f3d dd62 b73d
000001e0: e648 36bd f59f 673d a8a2 6d3d 48c4 013e
000001f0: f2fc e63d b922 873d 9a0d e7bd 2d19 d23c
00000200: 3529 14bd 73f3 cc3d 609c 5ebd 32c5 8dbd
00000210: 0f60 053e 5762 89bd b715 313d 5b0b a3bd
00000220: 356a a8bd 1fe7 ccbd 369e aa3d befc 8c3d
00000230: 7171 033d 565e 043e df05 333d 65e2 ebbd
00000240: b31e 39bd bce8 853d 58f7 ee3d 69a2 fe3d
00000250: f133 8bbd ce46 23bd 8dd4 c03d 56bb a33d
00000260: 75bc 283d d227 16bc 324c b63d 2e8c f43d
00000270: a9dc 17bd a27d b43d fffe edbd c86e e93d
00000280: 9a3f 88bd aaaa a7bd 45f8 253d 0f09 35bb
00000290: 4366 0a3e ef7e 603d 4711 d8bd d09e 6a3d
000002a0: ac1f c03d 81b7 d63d 6e79 183d 84e7 c73c
000002b0: 99f7 3e3d 13d9 b13c e367 28bd de04 293d
000002c0: 9eeb f63d 8380 213c 624e f5bd c0bc 51bd
000002d0: f8a1 4bbd 0970 d73d 8d9a c4bc 2859 78bd
000002e0: ccc9 d7bd b1a9 193d 4615 96ba c84f 993d
000002f0: af54 c03d 3b8c 053d 1d5d 033e fe6b bc3d
00000300: 19e9 613d b391 27bc 25f4 d23d 4b8f be3d
00000310: f267 eebc bb8b 05be 46e6 f4bd e521 193e
00000320: 78a7 7d3d 32cb b53d 7e1f a13d 7238 94bd
00000330: aeba 713b b774 433c 2baf 06bd 6674 583d
00000340: 79bd ba3d b729 80bd 6e79 fe3d de84 16bd
00000350: 6f39 d33d b06d a73d 7dcd b2bd 7089 06bd
00000360: af34 263d d1e8 c6bd 691e babb 3526 d2bd
00000370: 02e3 bf3d f4a9 ec3c c810 a33d ed42 f33d
00000380: d569 b1bd c048 903d 6c2c f7bd 2b94 d03d
00000390: 62f8 08bd fb8b b8bd 4f1d 873c 3e3c 0f3c
000003a0: 15dc bfbc 1cfd ae3c 4b03 fdbd 6483 44bc
000003b0: fd09 c83d e7ef f73c 5d80 ce3d c428 8ebd
000003c0: c7a4 3ebd bbfb debd 52aa 2b3d 21a6 463d
000003d0: dc93 95bd cc96 f7bd 37a0 17bd c566 b4bd
000003e0: 03ad 02bd 903b f8bd 7889 33bc 8926 743c
000003f0: d15b de3d 685e d53c 8655 09be 52f0 e03d
0.074861504 0.0906995 0.052510794 -0.06695813 -0.017717872 0.085659645 -0.042558916 -0.10001238
-0.0372337 0.08891474 -0.090116106 0.010944946 0.035017885 -0.09473197 0.038238678 0.10837518
-0.025642278 -0.13035946 -0.09459448 -0.035202164 -0.11677975 -0.06804221 0.04189373 0.06886161
-2.3283113e-05 0.014772786 -0.0043893503 0.10377242 -0.061600078 -0.012932707 0.0027739506 -0.043225728
-0.06413136 -0.016618555 -0.09818049 0.0012258216 0.09564722 0.1112386 0.07863848 0.04165779
-0.09116669 0.07304723 -0.08339493 0.030022217 0.022942167 0.05740517 0.11010034 0.13639842
0.08981072 0.091599695 -0.07785612 -0.03472036 0.13374294 -0.09581544 -0.119305484 0.045213647
-0.12252524 0.055293463 0.09603955 -0.06036396 0.08674058 0.06619769 0.08622819 0.09404238
0.0014054218 -0.054654926 -0.11640235 -0.047670424 0.022264104 -0.027226927 -0.08516811 -0.05336002
0.05656509 -0.13259646 -0.07081468 -0.10231124 0.027194014 0.03228856 -0.02474939 0.09582094
0.091796115 -0.0043936856 -0.00056072633 -0.05904033 -0.08183524 -0.11434401 0.008305592 -0.030559992
0.025749478 0.011291016 0.04973735 -0.023346161 0.09612524 0.029501833 -0.00018847328 0.07145891
0.07999701 0.042301133 0.13405944 0.10060758 -0.06259046 -0.095102824 0.09708733 0.013672998
-0.11323208 0.045101255 0.105153084 0.116010465 -0.07713775 -0.005471157 -0.022006461 0.07555827
-0.058710586 0.056947548 -0.05545551 -0.02476642 0.07510128 -0.051773597 0.054452527 0.089544035
-0.044503115 0.05654903 0.05801645 0.12672532 0.11278714 0.0659842 -0.11281891 0.02564677
-0.03617211 0.10007372 -0.05434835 -0.06922378 0.13024925 -0.0670821 0.0432336 -0.0796115
-0.082233824 -0.1000502 0.083309576 0.06884144 0.032090608 0.12926611 0.04370677 -0.11517791
-0.045195293 0.06538531 0.11668271 0.12433321 -0.067970164 -0.039862446 0.09415541 0.07994716
0.04119535 -0.009164767 0.08901252 0.119408 -0.037075672 0.08813025 -0.11620902 0.11398083
-0.06652756 -0.081868485 0.04051997 -0.0027623808 0.13515572 0.054808553 -0.105501704 0.05728036
0.09381041 0.10484219 0.03722518 0.024402387 0.046622846 0.021709954 -0.0411147 0.041264407
0.12056659 0.0098573 -0.11977841 -0.051205397 -0.049715012 0.10519416 -0.023999477 -0.0606319
-0.105365366 0.037515346 -0.0011450432 0.0748592 0.09391152 0.032604437 0.12828489 0.092002854
0.05515394 -0.0102276085 0.10300473 0.09304675 -0.0291023 -0.13041584 -0.11957984 0.14954336
0.06192729 0.08876647 0.07867335 -0.072373286 0.0036884951 0.011929682 -0.032881897 0.05284538
0.0911817 -0.062579565 0.124255046 -0.036747806 0.10313689 0.08175218 -0.087306 -0.032845914
0.040577587 -0.09712375 -0.0056798947 -0.10261194 0.0936947 0.028889634 0.07962185 0.118779995
-0.08662764 0.07045126 -0.1206902 0.10184511 -0.03344 -0.09011074 0.016493468 0.00874239
-0.023420373 0.021360926 -0.12354144 -0.011994217 0.0976753 0.030265762 0.10083077 -0.06941369
-0.046543863 -0.108878575 0.041910477 0.048498277 -0.073035926 -0.12089309 -0.037018027 -0.08808664
-0.031903278 -0.12120736 -0.010958068 0.014901766 0.10857356 0.026045993 -0.13411531 0.109833375

lstm.bias_hh_l0 f4 [256]
00000000: a874 e4bc c848 703c ab2e a0bc 9004 60bd
00000010: e483 ab3d bf4b 98bd 6315 cebb f683 a0bc
00000020: d0de af3d 29e9 a5bd d805 ebbc 1c82 d0bd
00000030: 90b5 b1bc 80e3 9ebd 36de 3ebd 35b8 c33d
00000040: 5edf 45bd 990a c7bd c162 df3c b9c7 a83c
00000050: 9aa0 dcbd ca41 45bd d720 aa38 182a 56bc
00000060: 362b 24bc c2fa 64bd 45e5 cebd e44d 62bb
00000070: 92ee b3bd 5967 513d 918f c7bd e2c1 38bd
00000080: abc1 53bd 9ee9 f5bd 307e 94bd aca9 eebc
00000090: 8aca 86bd d6ce 993d f8a6 353c 447b 9fbd
000000a0: 125a 2fbd 759d 1b3d f8ea 6d3c b271 8b3c
000000b0: 06d5 84bd 5ae8 183d 81db 883d a5e8 3fbd
000000c0: 45f4 2bbd 0a8f 6f3d baa5 07bc c2c0 553c
000000d0: 2581 de3b aeb5 d3bd 5783 dbbc b503 77bc
000000e0: 7751 98bd 3c29 c93c 9f79 a53d a299 913b
000000f0: 89b6 c1bd d2ef 88bd bf03 9f3d 135b 59bd
00000100: 9f2d d2bd 289e 06be f359 543d bafc a5bd
00000110: 68e3 0f3d 8aa0 6fbc f102 8e3d 0641 c53c
00000120: b2eb 603d 43fc 6ebc e37a d63d 6d0b f83d
00000130: e090 813d 0e37 2c3c 6e87 7ebd a31a 9ebd
00000140: d3d3 e43d 32b0 00be 7b0e 2e3d f5b5 74bd
00000150: 5146 c9bd b599 0ebd b8c0 3b3d fcab fe3d
00000160: 1246 ea3d d424 8f3c ab19 9d3d b215 b8ba
00000170: 8a88 87bd 12ab d6bd d9b0 bdbd c9a1 9a3d
00000180: 98b9 893d 7ea1 8b3d 3cec a23c f94b 533d
00000190: 4ba7 97bd dce4 f23c 77b6 a43d 0795 a5bd
000001a0: 5fa9 c63d 4c5b eb3d 22fb b7bd 349b 173d
000001b0: 04fe 8abd b0b2 efbc fa3d 0b3e 49ad 9d3d
000001c0: 0455 fb3c 88b4 db3d 2d24 f739 cb06 68bd
000001d0: b3dd fb3d 850b 703d e259 183d d4cc 12be
000001e0: 8922 4bbd ac12 bdbb 921b db3d e7a5 c7bd
000001f0: 57e3 fe3d 5a0c aabd 1e65 863d a942 babd
00000200: ed3d 2bbd 372e a0bc c07a 8c3b e838 093e
00000210: 31f4 f33d ca55 b0bc 3229 cdbc 786c ca3d
00000220: ec34 9bbb 7c19 223d 7b9c f13b a57a 38bd
00000230: b137 5b3c b1da 9dbd cab7 453d 7466 3abb
00000240: b8b6 273d d146 edbd 02cd e9bd ca96 c33d
00000250: 192d 8e3d 9bb9 8cbd b69e 09be 40c0 fbbc
00000260: 79a1 203d 6ac5 70bd 6fba 973c ac0a c8bd
00000270: 7713 a4bd 1512 05bd a62b 5d3c 4033 88bb
00000280: 47d1 eebd 6b62 5a3d dc4b b4bd bcde 5a3d
00000290: fbb5 64bd 17c0 9abd 9b91 88bc dde3 d3bd
000002a0: a3e9 65bd 662c 39bd 02ab 0e3d c65e a43d
000002b0: 7f70 f5bc e1f6 60bd 7b40 be3d cb3f babb
000002c0: b7ca e63d 63bb 333d d219 203d eea4 bfbd
000002d0: 264c c5bc 144e d43d 3b8f 8ebd e2ff 833c
000002e0: a1f3 fb3d 6816 d63d c364 0a3d 9156 813d
000002f0: 3a2a 8c3d 12ee 533c a7f1 1f3c f7b1 fabd
00000300: 01ca c13d 5802 96bd a1d2 c4bc f3d3 123d
00000310: acca 26bd 0086 413d 7e14 cbbc afe2 44bc
00000320: 84e6 d63d 24b0 663d 7fc3 4bbd 0b29 dd3c
00000330: 404c f6bb e6c3 e93d 5eb9 9abc 78eb d43d
00000340: 522b 553d 6a74 863d bbe4 a93d 1f0b a8bd
00000350: 6748 90bd 86bd 6a3c 32f0 8bbd 0b4d 833c
00000360: 7ed5 c1bd 739f 4f3d 81e9 7b3d ffc4 d6bd
00000370: 4b62 983b d7d1 3fbd ead6 46bd d96a 823d
00000380: 0986 d4bd 7e95 dc3c 72b2 d0bd 48ca de3a
00000390: 98d5 f43c d97d cc3d f716 b9bb 02e5 49bb
000003a0: 88d6 05bc ef2c 013e 807d fb3d 71e3 833d
000003b0: d926 ef3d 3513 d43d ccfe 27bd 90f8 133e
000003c0: 3944 a43d 5943 e33d 5775 e23d 3c8b b9bd
000003d0: 2ece 053e b0b2 693c a4f1 a7bd 4fdb 9dbd
000003e0: 0306 a8bb 165b c3bd ce3b a7bb 8105 023d
000003f0: 0d89 23bd 913a 083e 3f98 2b3d a456 933d
-0.027887657 0.01466579 -0.019553503 -0.05469185 0.083747655 -0.074363224 -0.0062891706 -0.019594174
0.0858742 -0.081011124 -0.02868931 -0.101810664 -0.021693021 -0.07758236 -0.046598636 0.09556619
-0.048308723 -0.09718818 0.02726877 0.020603048 -0.1077282 -0.048158444 8.1123486e-05 -0.013071559
-0.010020068 -0.055903204 -0.101023234 -0.003453129 -0.08785738 0.05112395 -0.0974418 -0.045106776
-0.051698368 -0.120074496 -0.07250631 -0.02913364 -0.065816 0.07510154 0.011087172 -0.07787183
-0.042810507 0.03799196 0.014521353 0.017021988 -0.064859435 0.037330963 0.06682492 -0.046852726
-0.041981 0.058486022 -0.008279258 0.013046445 0.0067902976 -0.10337387 -0.026796026 -0.015076567
-0.07437413 0.024555795 0.08079838 0.0044433633 -0.09458644 -0.06686367 0.077643864 -0.05306537
-0.10262608 -0.1314627 0.051843595 -0.081048444 0.03512898 -0.014625678 0.06934155 0.024078857
0.054912277 -0.014586511 0.104726575 0.12111554 0.06326461 0.010511173 -0.062140875 -0.07719924
0.11173215 -0.12567213 0.04249428 -0.05974384 -0.09827865 -0.034814555 0.045838088 0.12435147
0.11439146 0.017473616 0.076709114 -0.0014044552 -0.0661784 -0.10481848 -0.09262247 0.07550389
0.06724852 0.068179116 0.019888036 0.051586125 -0.074049555 0.029650144 0.08042615 -0.08085065
0.09700274 0.11492023 -0.08983447 0.037013248 -0.06786731 -0.02926001 0.13597861 0.07699067
0.030680187 0.10727793 0.00047138464 -0.056647103 0.12298145 0.058604736 0.037195094 -0.14335948
-0.049593482 -0.005770048 0.10698618 -0.0974844 0.124457054 -0.08303137 0.06562255 -0.09094746
-0.041807104 -0.019553287 0.004287094 0.13400614 0.1191181 -0.021525282 -0.025044058 0.0988397
-0.0047365334 0.039575085 0.0073733903 -0.045038838 0.013379977 -0.07707728 0.048270978 -0.0028442414
0.04094574 -0.11585773 -0.11416055 0.09550245 0.069421954 -0.06871339 -0.1343945 -0.03073132
0.039216492 -0.05878202 0.018521516 -0.097676605 -0.08011525 -0.032487947 0.013499176 -0.0041565
-0.1166101 0.053316515 -0.088035315 0.053435072 -0.055837613 -0.075561695 -0.016670993 -0.10346196
-0.056131016 -0.045208357 0.034831055 0.08025889 -0.029960869 -0.054922942 0.092896424 -0.0056838742
0.112691335 0.043879878 0.039087124 -0.0935763 -0.024084162 0.10366455 -0.06960913 0.016113225
0.12302328 0.104534924 0.0337875 0.06315339 0.068439916 0.012935178 0.009762204 -0.12240975
0.09462357 -0.07324666 -0.024026217 0.03584666 -0.040720627 0.047246933 -0.024790045 -0.012016936
0.10493186 0.056320325 -0.049746986 0.02699711 -0.007516414 0.11414318 -0.018887218 0.103964746
0.052043267 0.06565173 0.0829558 -0.08205246 -0.0704506 0.0143274125 -0.06832923 0.016027948
-0.094645485 0.050689172 0.061501984 -0.10486793 0.0046503893 -0.04683098 -0.0485448 0.06368036
-0.10377128 0.026926752 -0.10190286 0.001699754 0.029887006 0.09984941 -0.0056484896 -0.0030806665
-0.008168824 0.12614797 0.122797966 0.064398654 0.116773315 0.10355226 -0.041014478 0.14450288
0.08020825 0.1109683 0.11057537 -0.0905976 0.13066933 0.014263794 -0.08200386 -0.077078454
-0.00512767 -0.09538858 -0.005103565 0.03174353 -0.039925624 0.13303591 0.04189324 0.0719426

lstm.weight_ih_l1 f4 [256, 64]
00000000: 0b94 d43c 1e58 1a3d fd8b bf3d 85fa 073e
00000010: 355d 56bd fa67 8d3c e76b 003c 3606 b5bc
00000020: 5938 3abd 704b acbd 5fed fe3c 7161 993d
00000030: cde0 943d 1aff 813d 03cc 0c3d 12dc a23d
00000040: 39d1 3b3d 4dab 653d 9b50 c6bd b76b b7bd
00000050: d7a6 cfbd 91ac a53d 4c41 353d 4109 8a3d
00000060: fed6 f03d 3946 52bd 54f1 9b3d c7c3 4f3a
00000070: 24c1 f43c 548e c2bb 5ede 083e 68f6 1c3a
00000080: a2eb 4fbd 9295 a4bd b58a d63d c381 843d
00000090: 23b4 673d d606 b239 c537 ccbb a109 f13d
000000a0: 3777 a83d 45fe 103e 6026 963d 0708 4bbc
000000b0: 23b5 c7bd 4943 04be f05d 8abd 4af6 ea3d
000000c0: 2a79 f33d 7374 95bc ef6e 913d 707d dbbd
000000d0: 92c6 9b3d 5fe8 19bd 5c95 bb3d c388 9abd
000000e0: 4517 83bc dd68 a1bd 6a54 e53d d6d8 8bbd
000000f0: 8365 2cbc 738a bfbd cde2 9cbd 147e 6dbd
00000100: f32f 5fbc e477 5c3d fcdf a43d 21fe 87bd
00000110: c642 de3d 51b5 81bd 76a8 d9bc 7a8f 00be
00000120: e8a1 813d 1d39 663b bfe8 babd f6fe ff3a
00000130: 654d c4bd ce9d dfbb 1b1d c03d 1b69 c13d
00000140: 0daa 1c3d abc9 963d 0bab 17be 86bb 36bc
00000150: de8e a43c 4e91 503d 8cb7 f93c 9647 e53d
00000160: e4de dc3d 802c 69bd 805c 6dbb 05f0 093c
00000170: 57af a5bd 9803 cebd 833e 103e c03e a53d
00000180: 1c13 d33d 2a2d 623c 7b2c 103d 6cea e43d
00000190: 9ebc 973d 4e9e c3bd 09cd f5bd e10d 773d
000001a0: 5f71 c5bd 2cff 5bbd 74c3 8dbd 8f95 0c3b
000001b0: 3706 5dbd 7845 9b3d 53d0 b7bd 7dc5 393d
000001c0: 88cb 48bd 9f3f aa3b 8d82 9fbc 32ea 633d
000001d0: 43dd 403d b29e 8b3c f9b2 0bbc 9e8a ec3d
000001e0: 20e5 f1bd 71d7 b43c 8469 73bd 53be a43d
000001f0: 3609 023e 62cc 91bd 4356 b43d dbac a43a
00000200: c0fa 113d 9f65 6b3d 99da 64bc 83bf d8bd
00000210: da8e 76bd ad23 04be 1d3a 8dbd 346c 1a3d
00000220: 4090 9abd ffa2 b0bd 2b80 673d 4797 b63d
00000230: caf5 9c3b c808 e4ba 417a ca3d 8d32 0a3d
00000240: 6cb4 f03c b97e db3d 13da 77bd ac7b 65bd
00000250: 573d 923d 59b7 e03d 133c c73d b646 adbd
00000260: 6ded 22bc de95 6e3d 76fc dbbd b5d1 b8bc
00000270: 4375 2d3c c33c bfbd a3fc 00be df0f e8bd
00000280: 6cf4 bdbc 0772 c33d 8174 13bc 0c44 51bd
00000290: 84b2 8cbd 039c 9e3c 18b6 01be 28a3 f9bd
000002a0: 9dc8 7bbd 3bc8 46bd 8292 d93d caad a13d
000002b0: 6822 9abd cfee 003e 3d63 8dbb ede4 7e3d
000002c0: 4bc5 c83d 29f8 b8bd fffc 9cbd e478 c0bd
000002d0: 4096 9cbd 2a15 db3c 48b9 1cbd ba6e a6bd
000002e0: fd0a 953d 8818 013e 485e 423d 0c81 e5bc
000002f0: a363 d1bd a315 143d 6c58 893d 43e4 b33d
00000300: 81ee 05bd ef32 0c3d 0769 3dbd 14c4 f73d
00000310: 8f1e a7bc a499 8a3d b65d 0dbe b578 31bc
00000320: c3cc 61bd 5499 9fbd 9bb2 71bd 1282 0ebd
00000330: ccd3 30bd d67d df3c d770 cbbc d208 603d
00000340: f1f4 3c3d eca5 0ebc 13c5 6b3d e709 bbbd
00000350: 384d 01bc 7bbd 1e3b 3c87 c6bd 551e 853d
00000360: 19fc 5b3d 3b41 013c dfac bbbc 472b 013d
00000370: 3b20 36bc ddf5 4fbb 960c b9bd af29 b1bc
00000380: 72b6 bb3d 175c 423d f7e2 8bbc 6fb1 04be
00000390: 1064 8ebd 8f5b bbbd 63e5 463d ab0b aebd
000003a0: 2154 c03d a677 b23d 3c09 b23d a381 583d
000003b0: 92ed 193d 5576 da3c f0ba c43d b7e9 cb3c
000003c0: 00e8 bc3d 236e 103e a42b 6d3d 0035 a63d
000003d0: 3cea b2bd 2c78 1abc bdce 50bd 6858 3d3d
000003e0: 643d 013d e46b d83c d90b bc3d 52de 0dbe
000003f0: f303 bdbd 7c7e 92bd b14d cabd 816c 153d
0.025949499 0.03768169 0.093528725 0.1327916 -0.052334983 0.017261494 0.007838226 -0.022097688
-0.045463894 -0.08412826 0.031119047 0.074892886 0.0726944 0.06347485 0.03437425 0.07952131
0.045853827 0.05607157 -0.09683343 -0.08956092 -0.10139244 0.08089555 0.044251725 0.06740046
0.117597565 -0.0513365 0.07614389 0.00079255964 0.029877253 -0.005937377 0.13366076 0.0005987645
-0.050761826 -0.08036341 0.10475675 0.064700626 0.056568276 0.000339559 -0.006232234 0.11769415
0.082258634 0.14159496 0.07331538 -0.012392051 -0.09751346 -0.12916292 -0.067561984 0.11472757
0.118883446 -0.018244004 0.07101237 -0.10717285 0.07606234 -0.037575122 0.091593474 -0.075456165
-0.016002307 -0.07881329 0.11197741 -0.068284675 -0.010522249 -0.09352579 -0.07660446 -0.057981566
-0.013622272 0.053825274 0.08050534 -0.06640268 0.1085258 -0.063334115 -0.026569586 -0.12554732
0.06329709 0.0035129257 -0.09126424 0.001953094 -0.09585074 -0.0068242317 0.093805514 0.094438754
0.03824811 0.07362684 -0.14811341 -0.0111531075 0.020087656 0.050919823 0.03048303 0.111952946
0.107847005 -0.056927204 -0.0036218464 0.0084190415 -0.08090084 -0.10059279 0.14086346 0.08068609
0.10306379 0.013804713 0.03519867 0.11177525 0.07409023 -0.095516786 -0.12001998 0.06031597
-0.096407644 -0.053710148 -0.06922045 0.0021451449 -0.053961005 0.075816095 -0.089752816 0.045354355
-0.049022228 0.0051955725 -0.019471431 0.055643268 0.04708601 0.017043445 -0.008526557 0.11549877
-0.1181128 0.022075387 -0.0594268 0.08044114 0.12698826 -0.07119061 0.088055156 0.0012563722
0.035639524 0.05746996 -0.013968133 -0.10583403 -0.060194828 -0.12904234 -0.0689585 0.037700847
-0.07547045 -0.08624839 0.056518715 0.089155726 0.0047900425 -0.0017397637 0.09886599 0.033739615
0.029382907 0.1071753 -0.060510706 -0.056026146 0.07140606 0.10972471 0.09728255 -0.08460753
-0.009944302 0.058248393 -0.107415125 -0.022560934 0.010587039 -0.09337761 -0.12596373 -0.11331152
-0.023187838 0.09543233 -0.008999945 -0.051090285 -0.06869987 0.019361502 -0.1266712 -0.12189323
-0.061470617 -0.0485308 0.10623647 0.07894476 -0.07526094 0.12591098 -0.0043148086 0.06223004
0.09803256 -0.09031708 -0.07665443 -0.09398058 -0.076458454 0.02674349 -0.038262635 -0.08126588
0.072774865 0.12607014 0.047453195 -0.028015636 -0.10224082 0.036153447 0.06706318 0.08783772
-0.03269816 0.03422826 -0.04624274 0.12097946 -0.020400314 0.06767586 -0.13805279 -0.010832001
-0.055126917 -0.07792917 -0.059008222 -0.034792013 -0.043170735 0.027281683 -0.02483408 0.05469591
0.04613203 -0.008706551 0.05756099 -0.09132748 -0.007891946 0.0024221826 -0.09693763 0.06499926
0.053707216 0.007889087 -0.02290958 0.031535413 -0.011116083 -0.003173224 -0.09035604 -0.021626322
0.09165658 0.047451105 -0.017075999 -0.1295831 -0.06952679 -0.09148323 0.048558604 -0.08498319
0.09391046 0.087142274 0.086931676 0.052858006 0.03758008 0.026667753 0.09605968 0.024891717
0.09223938 0.14104514 0.057902947 0.08115578 -0.08736083 -0.009428065 -0.05097841 0.04622689
0.031552687 0.026418634 0.09181947 -0.1385434 -0.09229269 -0.07153031 -0.098781 0.03648043

lstm.weight_hh_l1 f4 [256, 64]
00000000: fd85 8e3d 6556 8a3c f5ca 11bd 9048 bdbd
00000010: b4ea 2f3c 85dc bdbd 23fa 69bd 298e 9fbd
00000020: 983f 44bd d109 4cbd 7426 b1bd 3757 0dbd
00000030: 506d 18bd cd6b 92bd 3e5a 5b3d c9a1 1f3d
00000040: 29a9 8d3d 1bb7 70bd d845 57bd 9a48 9b3c
00000050: 3459 bb3d a402 2dbd 5b41 12bc 5b03 bc3c
00000060: 7f3a 8cbd e845 a6bd 400b c4bc 8717 ff3d
00000070: 1cb9 f13c 0df1 1c3d 86ef dbbc 24d1 47bc
00000080: 7da8 543c d945 bd3d d53f 0b3e 121b e33d
00000090: 9265 06be 35c3 c2bc ab5d 753d 146d 07bd
000000a0: 5a15 88bd 628e 52bd f34b 8b3c f118 f5bb
000000b0: 8739 533d b79b 5ebd cbc2 a5bd 3751 62bd
000000c0: 2ff1 883c 9b2f 123c 7a30 0b3e 09e8 f6bc
000000d0: 55e8 c7bd 4185 e2bd 546d 603d f2d6 6a3c
000000e0: 5574 e7bd 9604 af3c 77e8 dabd 3ee3 03bc
000000f0: 8c55 bd3d 476b 8abd 785d b8bd de22 cdbd
00000100: 8b1d 0dbd da3c c9bd 2b57 7d3d 32d8 433d
00000110: 88b3 6cbd a977 84bd dd45 a9bd e199 5cbd
00000120: dae4 e3bd 79e8 49bd 8bb6 b4bd 8294 f53d
00000130: 0a19 823b a9a0 963c 6010 d3bd 7291 d0bd
00000140: 5841 d93d fd76 513c 3899 38bd 9ef2 bc3d
00000150: cf0a 24bd 5a51 57bd c287 38bd 3a50 453d
00000160: d0c8 0c3c 3fcf ec3d 9819 8c3b 1ef8 733d
00000170: a2bd aebd 12bd a63c b619 ab3d 9df1 b43c
00000180: c86b 55bd d755 3cbd a70a 6a3d bf45 cebd
00000190: 0446 61bc f278 3fbd a8ff 62bc c4cc 553d
000001a0: 118e fbbc c5e7 bcbd 6b08 27bd 1a42 e13c
000001b0: d91f 623d 7c05 90bd 3e1f f8bc 2e5c a83d
000001c0: 19a7 eabd 8727 1dbd fc85 793d 7c0a 923d
000001d0: fd13 b23d ef31 2a3d 3478 dabd d914 d63d
000001e0: 2e78 4b3d 86d7 5a3d f338 c63d 05bb 6e3c
000001f0: 750f 04be 1fef a4bd 6a39 573d f1f7 debd
00000200: 96c3 433a 6328 f9bd ffe8 fa3d bb54 47bd
00000210: e7ee 4c3d 9e33 ecbd ad0d de3c d974 1e3d
00000220: 62c2 0dbd 5ad3 233d 071d ea3d a702 71bd
00000230: 2f43 09bd 44b2 a13d 69f2 823c e8a5 69bd
00000240: 8ee7 a1bd b973 b23c a2cb 263d f770 b63d
00000250: 2ff1 643b 6470 92bc 9917 b13b 86c2 bc3d
00000260: 93d0 123e 560e 0f3e c8bc 98bd 50b9 56bd
00000270: fdc2 e93d 6dbe 3fbd df38 04be 65c3 7b3d
00000280: c983 783c 3b35 cd3b 236c fc3b 2fc1 a53d
00000290: 91ad 4a3d 9219 96ba d9a0 dd3d 4f30 2bbd
000002a0: 0e50 f1bd e28f 823d 5191 97bc c4e8 07be
000002b0: 0694 f23d e612 c6bd ba90 ccbd f98a 143d
000002c0: 2a96 cfbd b2e5 d73d 7df4 d43d 8e6d 5dbd
000002d0: a52d ffba cd0b 0f3e f270 be3d 8a94 cc3d
000002e0: 3fdd 8bbb eec3 37bd eec8 c0bd 40d0 ae3d
000002f0: 045b da3d dd44 3d3d ea33 833d 3f72 963d
00000300: 9efa dfbc 58f0 c8bd a33b 0e3d c590 84bc
00000310: 043d cc3d 7296 183d 13c8 ec3d 597e 483d
00000320: 2a74 cebc efb1 093e 1fbb 79bd e937 d6bd
00000330: 3738 9c3d bc2b 803a 93a0 873d 39c4 0b3e
00000340: 0d3a b8bd b6d4 d1bd 4d6f cdbd fda9 843d
00000350: d290 b0bd 3711 8dbd d386 7ebd a8a3 a83d
00000360: 322b 823c 6b30 0dbc 57a4 d53c c1d7 b4bc
00000370: e3ca 05be e49a 02bd 9553 babd 6240 d4bd
00000380: 9702 7bbd 8f9e c0bd b546 863d 24c0 023e
00000390: 493d 7dbd 96c4 fb3d aa2b 91bd df71 9dbd
000003a0: 8df9 83bd 155e b23d 1b0b bebd f483 99bd
000003b0: e1ae 003d 9a6a 3e3b 8870 99bc 88c4 c43d
000003c0: 6299 8bbc e610 86bd 28c4 013e d339 b8bd
000003d0: 7836 423d 91c4 0439 65aa c0bd 147f 54bd
000003e0: aca5 b33c fcad da3b 1ada 863d 458b 723c
000003f0: 8089 d0bd 6baa 5c3d 94a0 913d 144e d83d
0.0695915 0.0168869 -0.035593946 -0.09242356 0.01073711 -0.092705764 -0.057123315 -0.07790787
-0.04791221 -0.04981405 -0.086499125 -0.034507003 -0.037213624 -0.071494676 0.05355286 0.03897265
0.0691703 -0.058768373 -0.052556843 0.018955518 0.091478735 -0.042238846 -0.008926715 0.022950819
-0.06847095 -0.08118802 -0.023931146 0.12455659 0.029507212 0.03831582 -0.026847612 -0.012195859
0.012979624 0.09241838 0.13598569 0.110891476 -0.13124683 -0.023774723 0.05990378 -0.03306301
-0.066446975 -0.051405318 0.017003989 -0.00747978 0.051568534 -0.05434772 -0.080937944 -0.055253234
0.016716568 0.008922483 0.13592711 -0.03013994 -0.09761111 -0.110605724 0.054791763 0.0143334735
-0.113014854 0.021364491 -0.106888704 -0.008049784 0.092448324 -0.06758743 -0.09002203 -0.10016416
-0.034452002 -0.0982606 0.061850708 0.0478136 -0.0577884 -0.06468136 -0.082652785 -0.053857688
-0.11127634 -0.04929397 -0.0882388 0.11991216 0.00397027 0.018387156 -0.10305858 -0.101839915
0.106081665 0.012784717 -0.045067996 0.09225963 -0.04004937 -0.052567817 -0.045051344 0.048172213
0.008592799 0.115629666 0.004275512 0.059562795 -0.08532263 0.020353828 0.08354513 0.022087866
-0.05210474 -0.0459803 0.057139065 -0.10071897 -0.013749603 -0.0467462 -0.0138548985 0.052197233
-0.030707391 -0.09223894 -0.040779512 0.02749734 0.055206154 -0.07032296 -0.030288335 0.08220707
-0.114576526 -0.038367774 0.060918793 0.07130906 0.08695219 0.041551527 -0.10667458 0.10453195
0.04967516 0.053428195 0.09678831 0.014570956 -0.12896521 -0.08053421 0.05254499 -0.10887135
0.0007467804 -0.12165906 0.12251472 -0.04866479 0.050032523 -0.11533283 0.02710613 0.038685653
-0.034609206 0.039996482 0.11431318 -0.05884042 -0.033511337 0.078953296 0.01598473 -0.057042986
-0.07905494 0.021783696 0.040721543 0.08908265 0.0034933796 -0.017875858 0.0054044244 0.0921679
0.14337377 0.13970312 -0.07457882 -0.05242282 0.11414144 -0.046812464 -0.1291232 0.06146564
0.015168139 0.006262449 0.0077033206 0.080934875 0.049481932 -0.0011451712 0.10821695 -0.041794118
-0.11782847 0.063751 -0.01850191 -0.13272387 0.118446395 -0.09671573 -0.09988542 0.036265347
-0.101360634 0.10541858 0.10398195 -0.054059558 -0.0019468559 0.13969345 0.09298886 0.09989269
-0.004268318 -0.044864587 -0.09413324 0.08535814 0.10661891 0.04620825 0.06406386 0.073460095
-0.027341183 -0.09811467 0.034724843 -0.016182313 0.09972575 0.03725285 0.11561599 0.04894862
-0.025201876 0.13446783 -0.06096947 -0.10459883 0.0762791 0.0009778659 0.06622424 0.13649072
-0.08995447 -0.102456495 -0.100309946 0.06477735 -0.08621372 -0.06888049 -0.062140297 0.0823434
0.015889738 -0.008617501 0.02607934 -0.022075536 -0.13065676 -0.031885996 -0.09097973 -0.103638425
-0.061281767 -0.09405243 0.06556455 0.12768608 -0.061826024 0.12293355 -0.070884064 -0.07687735
-0.064440824 0.08709351 -0.09279462 -0.07495871 0.031416778 0.0029055239 -0.018730417 0.09607798
-0.017040912 -0.06546192 0.12672484 -0.08995404 0.047415227 0.00012661728 -0.094075 -0.051879004
0.021929584 0.0066735726 0.06584568 0.014803712 -0.10182476 0.05387346 0.07110706 0.10561767

lstm.bias_ih_l1 f4 [256]
00000000: da5b 763d f6c8 aabd 1a9c 98bd 7bd0 24bd
00000010: 30eb f13d 8e65 bf3d ef55 b33c 080a 34bd
00000020: 48fe c03d 6961 0bbc f887 dcbc dbbc b13d
00000030: 1f93 2fbc e363 40bd a7d2 70bb 6be9 b2bd
00000040: cac5 c8bd 0727 d2bd 3361 aabd 4d82 913d
00000050: 876c 143d 8070 eb3c d2e4 b73d 93ab d4bd
00000060: 35dd 02bd f194 57bd f912 c2bd 6af3 2a3d
00000070: dc79 e63d a194 113d 6282 223d c455 0fbd
00000080: 07e3 97bd 080f 8d3b 9359 813d 6784 94bc
00000090: 4ad3 8cbd e405 1d3d bda9 513d de6b e73d
000000a0: 179a b63d c272 f63d 9115 ffbd 8eca 8bbd
000000b0: 5647 4cbc 33ac bb3d 33d2 403d e1cc 923d
000000c0: 4e3a ff3c 5e08 1e3c 78f9 2cbd fea2 b7bd
000000d0: eb08 c0bd fb60 243d 748c f23c 08c4 9bbd
000000e0: 0a5e e3bd 03ac f83d bf47 dc3d bc1a 4b3d
000000f0: 21b2 18bc e97f f93b 9d90 b3bd ca75 133d
00000100: e741 fb3d 66ba e0bd 0992 44bd 4dab 83bc
00000110: f465 91bc ef5f b03d 1771 e63d 4e40 07be
00000120: 37d6 fcbc a3ea de3d c83d 463d afee ff3d
00000130: ed19 1b3d 8976 123d b338 fabc 6410 d43d
00000140: 5b72 f3bc cf09 9e3d 7f18 10bd 20d3 863d
00000150: b2b7 493c 7d3c 9fbd ed25 093e 87c1 18bd
00000160: c950 613d b3b0 3dbd 71ee 953d 832b cbbd
00000170: 46c8 abbc 9df8 c839 b99d 063d b360 eb3d
00000180: 9fff b73c d833 87bd 1f91 d7bd 5115 acbd
00000190: 1189 b6bd 951f 81bd 36f9 e73b 4315 be3d
000001a0: f4ea e93d 923f bc3d 3e51 a03d 3d41 be3d
000001b0: f933 9e3b 65d2 8abc 9c98 0a3d 0ada 5cbd
000001c0: 263b fabd bcc3 923d 8dd1 07bd 671e debd
000001d0: a8bd 123d 4906 92bd 3ef2 aabc 2fc6 e9bd
000001e0: 5409 67bd 4f62 a63c 34ac 1e3c 2a18 9dbd
000001f0: 7c72 033d b1f7 45bd e336 4d3d ec2a 1b3d
00000200: 8e36 293d 9ba2 d93d 16f7 a9bc 6433 ecbd
00000210: a86e 23bd 44b7 47bd 84c4 333d 87a7 fc3c
00000220: af49 23bd 3121 9d3a e379 d7bc 2d5b fdbd
00000230: 88c6 3a3d 0c6b c93d 6680 eebc 530e f2bd
00000240: a985 f33d 559c 393d 4318 c9bd 4786 b13d
00000250: b5ff dcbd 3498 bd3d 319e 223d 75ab 98bd
00000260: 12dd a13d cf6a bdbd 2856 1c3d f4d1 4d3d
00000270: eb29 903d e3ee c2bd 039e d93d 94a1 1f3d
00000280: 7b44 42bd 364e 0bbe 31ca 003e 6a03 923d
00000290: b2ad 88bd 7862 9fbd 448b 063e d357 05bb
000002a0: 91e3 aebd 382d 633b 30ce df3d 3723 a3bc
000002b0: 3ca3 8abd 8344 b6bd 6581 d6bd c153 94bd
000002c0: 33c1 383d 4518 a9ba ea5a 003e f6fd dcbc
000002d0: 6948 e4bc 92be 56bd 93c5 863d 9b46 d73d
000002e0: f2d8 b33c 9282 803c 569c 12bd c6e8 a53d
000002f0: aa70 3fbd 6a8f eebd ae29 043e 2e59 4e3d
00000300: 6c1e 833c 60a9 90bd 1335 febd 66d5 c23d
00000310: 7507 7bbd 45d0 afbc c4a7 86bd 00cc 35bb
00000320: 9b86 91bd 56b2 473d c277 c53d be2e 33bd
00000330: cc06 073e 4a02 e53c e2b7 7cbd c5f5 81bd
00000340: c416 25bd 1454 51bd d82b fe3c deb8 ee3c
00000350: 4ce9 863d 1643 13bd 4dc0 bfbd 2106 7ebd
00000360: ab46 b1bd 1cc3 ff3b 91d7 173d fba6 dbbd
00000370: f0cb bfbb 0e0c d5bd e1cc b23d 0ff5 dcbd
00000380: f826 593c 6faf ecbc 2d7a ea3c 0410 103d
00000390: 2878 843c f74e aa3d 2b61 df3d 908f 91bd
000003a0: 1ec6 30bc 3595 933d bfe2 cf3d 5e23 8f3d
000003b0: 4a70 3c3d 7983 083a 5177 0fbd 9df9 a43d
000003c0: efc3 23bd 64cc c23d 72c7 cabd 4d9e 183d
000003d0: e22e ec3d 30a9 d8bc 176b 433d b8c2 603d
000003e0: 6297 b73c 10ca 2dbd 9f10 423c 8feb a03d
000003f0: a509 89bd dc7e 0e3e 9f31 febb 97e4 143d
0.06014619 -0.083391115 -0.07451649 -0.040237885 0.118124366 0.09345542 0.021891562 -0.04395488
0.094235 -0.008507111 -0.026920304 0.086785994 -0.010716229 -0.04697026 -0.0036746652 -0.08735927
-0.0980335 -0.1026135 -0.083193205 0.07104931 0.036236312 0.028740168 0.08979191 -0.10384288
-0.03194924 -0.052632276 -0.09476275 0.041736044 0.112537116 0.035542134 0.039675124 -0.0349939
-0.07416349 0.0043047704 0.06315913 -0.01812954 -0.06876238 0.038335696 0.051187266 0.11299871
0.08916109 0.12033607 -0.12455285 -0.068257436 -0.01246818 0.09163704 0.04707546 0.07167984
0.031155732 0.00964555 -0.0422301 -0.08966635 -0.09376701 0.04013155 0.029607989 -0.07605749
-0.11101921 0.12142184 0.10755872 0.049586043 -0.009319813 0.007614125 -0.08767817 0.036001004
0.12268429 -0.10973053 -0.047990832 -0.016072894 -0.01774881 0.08612048 0.11252039 -0.13208124
-0.030863864 0.10884597 0.048398763 0.12496697 0.03786652 0.035757575 -0.030544614 0.10354689
-0.029717615 0.077167146 -0.03517961 0.06583238 0.012311863 -0.07775209 0.13393374 -0.037293937
0.055008683 -0.04631109 0.0732087 -0.099204086 -0.020969521 0.00038332204 0.03286526 0.11493053
0.022460757 -0.06601685 -0.105257265 -0.08402503 -0.08912862 -0.06304852 0.007079269 0.09281399
0.11421767 0.091918126 0.07827996 0.09289787 0.004827973 -0.016946027 0.033836946 -0.053918876
-0.12218313 0.071662396 -0.033158828 -0.108456425 0.0358254 -0.07130105 -0.020867463 -0.11414754
-0.05640538 0.020310549 0.009684611 -0.076706246 0.032091603 -0.04833192 0.050101172 0.03788273
0.041311793 0.10626718 -0.020747703 -0.115332395 -0.039900452 -0.04875876 0.043888584 0.030841602
-0.039865192 0.0011988041 -0.026303237 -0.12370906 0.04559949 0.09834871 -0.02911396 -0.118191384
0.11890728 0.045315105 -0.09819081 0.086681895 -0.1079096 0.09257546 0.039701644 -0.07454578
0.07903494 -0.09248888 0.038168103 0.050249055 0.07039245 -0.0951822 0.106258415 0.038972452
-0.04742859 -0.13604054 0.1257713 0.071295574 -0.06673755 -0.07782453 0.13139063 -0.0020346537
-0.085394986 0.0034664404 0.10927999 -0.019914253 -0.06769416 -0.08899786 -0.10473899 -0.07242537
0.045106124 -0.001290091 0.12534681 -0.026976567 -0.02786656 -0.052427836 0.06580653 0.10511514
0.021954034 0.01568726 -0.035793625 0.08101039 -0.046738304 -0.11648448 0.12906525 0.050378017
0.016005717 -0.07063556 -0.12412467 0.09513359 -0.06128641 -0.021461615 -0.065749675 -0.0027740002
-0.07105752 0.04875406 0.096419826 -0.04374575 0.13186187 0.027955193 -0.0616988 -0.06345705
-0.040304914 -0.051105574 0.031026766 0.029140886 0.065874666 -0.03595265 -0.0936285 -0.062017564
-0.08656057 0.0078052413 0.037070815 -0.10725208 -0.0058531687 -0.1040269 0.08730484 -0.10788929
0.01325392 -0.028892247 0.028622711 0.035171524 0.016170576 0.083158426 0.10907205 -0.071074605
-0.010789422 0.07206193 0.1015067 0.06989168 0.046005525 0.0005207579 -0.0350259 0.080554225
-0.03998178 0.09511641 -0.099013224 0.037260342 0.1153238 -0.026447862 0.04770955 0.0548732
0.022411052 -0.04242903 0.011844783 0.07857429 -0.06691293 0.1391558 -0.00775738 0.036350813
